models/policy_head_best.pt (torch, 42699 bytes, 7 tensors)

shared.0.weight f4 [128, 9]
000000 f7 bf 9b 3e 96 73 a0 be 2a 4e 4c 40 48 4e 93 3e
       0.30419895 -0.31338185 3.1922708 0.2877066
000010 00 58 ba 3e a5 ee 10 bf c0 8b 51 be 9d bf d9 bd
       0.36395264 -0.5661414 -0.20463467 -0.106322505
000020 cd 5e 4d be 1b 84 85 3e e8 11 dc 3e c6 f2 d1 bf
       -0.20055695 0.2607735 0.4298241 -1.6402214
000030 51 77 f2 3d e0 b2 cd 3d 75 84 05 bc 57 ad 06 3e
       0.11839164 0.10043883 -0.008149256 0.13152061
000040 43 2c 37 3d 11 fe 9c bd 5f df 57 bc ca 06 55 bf
       0.044719946 -0.07665647 -0.013175814 -0.83213484
000050 dd 06 91 40 a9 0c 00 bf c6 ac 90 3e ce 72 bc be
       4.532088 -0.5001932 0.28256816 -0.3680634
000060 72 52 ad 3b a9 7d 0f 3e 54 4e 14 bf 11 ff 84 bd
       0.0052893693 0.1401278 -0.5793202 -0.064939626
000070 c1 14 78 bf 31 d0 8b 40 75 e3 4a be bd 07 09 3d
       -0.9690667 4.369164 -0.1981333 0.033454645
000080 88 3d 3d bd a4 51 18 be 0f f9 5f 3e df a8 3e be
       -0.04620126 -0.14874893 0.21872352 -0.18619107
000090 2a 55 9a 3e 11 4f 34 bf 2e d3 82 40 75 fa 87 be
       0.301431 -0.70433146 4.088279 -0.2655827
0000a0 f5 05 d6 bd 8d 00 13 bf f7 14 8d be 9b 63 b3 3e
       -0.10450355 -0.57422715 -0.27555057 0.3503693
0000b0 00 60 30 be 69 50 eb 3d 38 15 08 bf 4f 02 48 40
       -0.17224121 0.114899464 -0.5315738 3.125141
0000c0 5d 6c c3 be 2d f0 f1 3e 88 ae fa be 47 da b2 3e
       -0.38168612 0.47253552 -0.48961282 0.34932157
0000d0 ee 56 46 be 39 b7 87 be ee 27 24 3e 1d 24 8e 3f
       -0.19369099 -0.26506975 0.16030857 1.1104771
0000e0 53 ea 6a c0 0f 32 e4 bc 3f 4f 10 be f4 9a 36 3f
       -3.670552 -0.027855901 -0.1409273 0.7133019
0000f0 b8 53 42 be c3 73 84 3e d4 e7 8b 3e a0 e7 ea 3e
       -0.18977249 0.2586957 0.27325308 0.4587984
000100 58 d0 f3 be 0d e0 84 40 35 b4 e4 be bc ac 07 3f
       -0.4761989 4.15235 -0.44668737 0.52997947
000110 08 71 b0 be d9 a1 47 3e c9 fb 44 be 25 72 22 bf
       -0.34461236 0.19495334 -0.19236673 -0.6345542
000120 2f 8d 1e 3e 20 67 35 bf b1 ef 51 40 95 44 19 be
       0.15483545 -0.7086048 3.2802546 -0.14967568
000130 2d 3a 72 3e a5 14 93 be 85 df 2b 3e af 8a 55 3e
       0.23655005 -0.28726688 0.16784485 0.20853685
000140 49 b3 da be 2a 1d 4d bd 65 fd 25 3e c8 0f be 3f
       -0.4271491 -0.05007664 0.16209944 1.4848566
000150 9a 6f aa 3d ad 05 51 3e 4a 86 15 bc 12 f7 40 be
       0.083220676 0.20412321 -0.009126255 -0.1884425
000160 77 21 e2 be f3 47 00 be c7 94 fd 3c 6a 1c b3 bf
       -0.44166157 -0.12527446 0.030954732 -1.3993046
000170 e7 8b 7e 40 95 9e b2 be 46 84 95 be bf ad 23 be
       3.977289 -0.34886613 -0.2920248 -0.15984248
000180 5b f5 38 be 3c c8 17 3e 9a 97 9c be 58 ed b7 be
       -0.18062346 0.14822477 -0.30584413 -0.35923266
000190 df de 41 be cc af 80 40 b6 6b ca be a1 19 de be
       -0.18932675 4.0214596 -0.39535302 -0.43378928
0001a0 0b 32 01 bf 20 84 b6 be 74 cb 29 3e 3a 0a 4f bf
       -0.50466985 -0.35647678 0.16581517 -0.8087498
0001b0 a4 51 4a 3e 9b 56 3b bf c2 bd 8a 40 25 16 f0 3c
       0.19757706 -0.73179024 4.335664 0.029307434
0001c0 a5 9c 4a 3e b4 ac 36 bf f4 51 c0 3b f8 51 ea 3d
       0.19786318 -0.71357274 0.0058691446 0.114414155
0001d0 0e 00 0d be b9 3d d6 bd f4 73 90 3e a6 e0 2a 3f
       -0.13769552 -0.104609914 0.28213465 0.66749036
0001e0 39 5c ef bd 5b 0a ca bd e1 85 b9 3e 87 a8 c5 be
       -0.11687512 -0.098652564 0.36234954 -0.3860514
0001f0 60 a1 e7 be e7 99 b5 be 80 fc 9d 3e e7 79 08 3e
       -0.45240307 -0.3546898 0.30856705 0.13327752
000200 84 bd 24 40 3b 72 b0 3e ad 6d 16 be 17 b9 4e be
       2.574067 0.3446215 -0.14690275 -0.20187794
000210 27 0a 27 bb 5d e0 68 be fa 62 75 be fc 7f f3 ba
       -0.002548823 -0.22741838 -0.23963538 -0.0018577571
000220 2a 80 26 bf 58 66 62 40 10 a1 f4 bd d3 66 50 be
       -0.6503931 3.5374966 -0.11944783 -0.20351724
000230 e7 58 20 bf ad f3 35 3c c3 cd 23 be c7 00 da bd
       -0.62635654 0.01110546 -0.1599646 -0.106446795
000240 5e 0e 0c 3e 9b 2e 85 bf 4a 65 7e 40 55 36 92 3b
       0.13677356 -1.0404848 3.9749322 0.0044620433
000250 d9 0d c6 3e 13 98 ef be e4 e2 ea 3d ba 8f 03 3d
       0.3868244 -0.4679571 0.11469057 0.03211949
000260 19 8d a5 be e3 a2 b6 3c 0d 93 3c 3f 5e 4a 55 c0
       -0.3233421 0.022294467 0.7366188 -3.332664
000270 e7 97 1b 3e ef 8a ba 3d 73 b5 32 3f 7f 1e a1 3d
       0.15194665 0.09108531 0.6980812 0.07867145
000280 1e 48 c3 3e a8 15 64 3e 02 65 df bd 82 93 37 bf
       0.3814096 0.22273886 -0.109079376 -0.71709454
000290 51 83 7b 40 21 7b ee be 45 6c 5e 3e 17 31 cc be
       3.92989 -0.46578315 0.21720989 -0.39881203
0002a0 88 a6 5f 3e 72 49 ce 3d 94 49 f2 be be 93 9d be
       0.2184087 0.10072602 -0.4732176 -0.3077678
0002b0 f9 12 5d 3f 09 77 50 c0 2a c5 ad 3e 9c e8 fd bc
       0.86357075 -3.2572653 0.33939487 -0.030994706
0002c0 43 86 3b 3f 21 8f a8 3e 2e 33 3b 3e 59 88 70 3e
       0.7325174 0.329217 0.18281242 0.23489513
0002d0 4a 5e 17 be 29 09 31 be 0f 25 74 3f fa 43 9f 3d
       -0.14782062 -0.1728865 0.95369047 0.077766374
0002e0 40 0e 3d 3e 58 d9 8c 3e bb 81 ae be 41 f5 15 bf
       0.18462467 0.2750957 -0.34083351 -0.5857735
0002f0 25 aa c1 bd 0c 15 3d 3b 5c 0a 7f bf 84 9e 7a 40
       -0.094562806 0.0028851656 -0.9962518 3.915925
000300 91 65 ba be 2b c4 72 3e 03 97 10 bf d4 75 c8 bd
       -0.36405614 0.23707645 -0.56480426 -0.09788099
000310 49 fc ce 3e b3 39 7c be 54 6e 0d 3f 2a 2d ec be
       0.40426853 -0.24631386 0.5524647 -0.46128207
000320 1d 66 6b 40 1f e8 2d be d3 bc 23 3e 8d 73 25 bf
       3.6781075 -0.16983078 0.1599 -0.6462944
000330 6d 3b a5 3e 57 38 d8 3d a5 d1 b5 be 21 5f a8 3d
       0.322719 0.10557621 -0.3551151 0.082212694
000340 89 89 2a bf 68 8e 17 40 8f c8 02 3d 78 94 c6 3e
       -0.6661611 2.3680668 0.03192955 0.38785148
000350 4b 56 46 be 4d 92 89 3e 1b 03 7a be 9a a3 88 3e
       -0.19368856 0.2686943 -0.24415247 0.26687318
000360 dd 5f 1e bd ba a4 c6 be 8d 31 7f 40 26 77 1e bf
       -0.03866564 -0.3879755 3.9873993 -0.61900556
000370 a0 39 8d 3e 27 47 a2 be e4 5d cb 38 1e 7e 56 3e
       0.27583027 -0.3169491 9.697283e-05 0.20946547
000380 e4 92 34 bf 28 7f 99 bd 80 c9 99 be 3e 63 fa 3e
       -0.7053664 -0.07494956 -0.30036545 0.4890384
000390 5c e3 7b bc bf f6 af 3e ac b6 12 be 36 f4 c1 be
       -0.015374031 0.3436794 -0.14327496 -0.3788163
0003a0 5c d2 e1 be f5 89 32 3e 4e d7 4d be 74 a1 99 3e
       -0.44105804 0.17435439 -0.20101663 0.3000599
0003b0 ae a0 6f 3e 4c 81 9b be 30 4b 5e 3e 74 f5 c8 3e
       0.23401138 -0.30372083 0.2170837 0.39249766
0003c0 c1 da b3 3e 17 33 94 bb e8 57 8b be a0 6f 0b 3e
       0.35127833 -0.004522692 -0.27215505 0.136168
0003d0 40 4e 2f bf 9c 5b 3a 40 c3 2f d8 be 1a 9c 01 3e
       -0.68478775 2.9118414 -0.4222394 0.12657204
0003e0 41 60 1a bf 72 cc c2 3e 9d 5c 6f be cc 05 8c be
       -0.6030312 0.38046604 -0.23375173 -0.27348173
0003f0 24 76 81 3e 38 35 89 3f e6 91 41 c0 d0 fe b0 3e
       0.25285447 1.0719366 -3.02453 0.34569407

shared.0.bias f4 [128]
000000 10 2b 1a 3e 22 5b 40 3e 55 99 45 3d 16 2b 3b 3e
       0.1505549 0.18784764 0.048241932 0.18278155
000010 d3 a7 90 3e 6f 7f 80 be 54 4b 70 3d 98 6d b0 3e
       0.2825304 -0.25097224 0.05866559 0.34458613
000020 8d b0 a7 3d 38 8d 92 3d 47 63 1a 3e 6c ae 6c 3e
       0.08187971 0.071558416 0.15076934 0.23113412
000030 60 a3 49 3e d5 96 8e be db db 12 3c e9 ce b9 3e
       0.19691229 -0.2784945 0.00896355 0.36290672
000040 62 f2 d2 3e f5 e3 30 3d 8b 49 de bd e6 a5 30 bd
       0.41200548 0.043186147 -0.10853871 -0.043126963
000050 b0 27 9f 3d 8c b4 41 3d 48 b2 a7 3e d1 75 ae 3d
       0.07771242 0.047291324 0.32753205 0.085185654
000060 3d f3 0c 3d 87 09 92 be 2e ba 19 3e 4f c6 81 be
       0.034411658 -0.28522894 0.15012428 -0.2534661
000070 d7 15 f0 3c 85 ad 3f 3e c5 76 4a 3c 4f 71 53 3e
       0.029307289 0.18718536 0.012357418 0.20648693
000080 4d f7 03 be 40 47 65 3e a1 f5 b8 3d 1c ae 93 3e
       -0.12887307 0.22390461 0.09031225 0.28843772
000090 2d 0b 55 bc e6 ae 50 be 38 40 1e bd 97 f9 6a be
       -0.013003153 -0.20379218 -0.038635463 -0.22946773
0000a0 6b 8a 1b bd 8d 73 bf 3d ee 4d b7 3d 02 21 4a 3e
       -0.037973803 0.093482114 0.08950411 0.19739154
0000b0 2d d5 ca 3d 2d ee 3b 3e ec e9 0e be c8 c4 fe 3d
       0.09903941 0.18352576 -0.13956422 0.12439877
0000c0 2c 71 ab 3d 7a 54 d2 3e 9b 7f 88 3e 05 dd 19 3e
       0.08371195 0.41080076 0.26659855 0.15025719
0000d0 8a 8e ce 3e 23 5b fc 3d 20 f1 bd 3e 91 25 ae 3e
       0.40343124 0.123220704 0.37098026 0.34013036
0000e0 56 6b 6f 3e 62 2a 84 3c d1 0e e1 3d 60 e6 ba 3e
       0.23380789 0.016133491 0.10989154 0.36503887
0000f0 2c 14 d6 3e 00 74 93 be 11 54 f6 3e 7e 54 91 3e
       0.41812265 -0.28799438 0.48111013 0.28384775
000100 f9 8c 86 3d 5a 27 30 bd 1e 07 f2 3e 3e 81 bf bd
       0.06569857 -0.04300628 0.47271055 -0.09350823
000110 67 17 55 3e a4 f3 ef bb 89 2a 22 be d6 05 93 3e
       0.20809709 -0.0073227454 -0.15836538 0.2871539
000120 ff 63 70 3e d2 cc ad bd 43 52 08 be 75 5f 9c 3e
       0.23475645 -0.08486332 -0.1331263 0.30541578
000130 d5 c3 8c 3e ce 6e 28 3e 00 75 9c 3e aa 10 ec 3d
       0.27493158 0.16448519 0.30558014 0.11526616
000140 48 e6 44 3d 10 fa b9 bc 69 6a 47 3e ae 51 a9 3e
       0.048071176 -0.022702247 0.19474186 0.3307013
000150 f1 d5 2d 3d 00 32 5c 3e 2b 72 90 3d f2 5c 55 3e
       0.04244036 0.21503448 0.07053026 0.20836237
000160 31 8a e9 bc e7 28 4a be cf f0 13 3e 04 bc 32 3e
       -0.028508278 -0.19742166 0.1444733 0.17454535
000170 f0 cb cf bd e4 9c 70 3b 32 a6 82 3e f8 51 05 3e
       -0.1014632 0.0036714608 0.25517422 0.1301955
000180 b9 69 81 3e 8b e4 64 be 31 fb 70 bd 3e 36 17 3e
       0.25275972 -0.22352807 -0.058833305 0.14766786
000190 f0 a7 76 bd 10 e8 fd bd 0f c7 b5 3e 50 f7 95 3e
       -0.06021875 -0.12397778 0.35503432 0.29290247
0001a0 c2 07 ba 3d fa 2a 74 3e 33 73 b6 3e ff e1 cc bd
       0.09083511 0.2384452 0.35634765 -0.10004043
0001b0 ce d8 63 bd e9 3e ce bd 3a 05 ca 3d 6d 44 aa 3e
       -0.055626683 -0.10070593 0.09864278 0.3325533
0001c0 ea 36 db be 9b dd 47 3e 34 4f c4 be 96 6d 13 3c
       -0.42815334 0.1951813 -0.38341677 0.008998295
0001d0 f7 93 5d bd 61 ff 86 bc 90 85 e1 bd 38 06 9e 3e
       -0.05409619 -0.016479196 -0.11011803 0.3086412
0001e0 67 ff 5e bd c3 31 81 3e 97 98 c8 3e 3d 10 89 3e
       -0.05444279 0.25233278 0.39178917 0.267702
0001f0 cb 4e 3f 3e 75 c3 d1 be be e9 df 3d 1e 82 b9 3c
       0.18682401 -0.40969434 0.10933255 0.022645053

shared.2.weight f4 [64, 128]
000000 5b 35 d9 bd 0f 53 a5 3d 88 ec 19 bf cb 6f 25 3e
       -0.1060588 0.08072483 -0.60126543 0.16155927
000010 41 88 7a 3d b3 af 98 be 9b 1c 3b 3e 70 03 81 be
       0.061165098 -0.29821548 0.18272631 -0.25197935
000020 3d e0 72 3e 92 df 0b bf 3c 03 06 be 54 a2 db be
       0.23718353 -0.54638016 -0.13087171 -0.42897284
000030 ec 9c 19 bd f1 1f 3f 3e 2d 7a 67 3d 12 da 03 3c
       -0.037503168 0.18664528 0.056513 0.0080475975
000040 fa fe 3a 3e 12 d2 c0 3c fb 4f 4e be 23 8e 1b bd
       0.18261328 0.02353767 -0.20147698 -0.03797735
000050 5f e4 d9 be 59 ce c5 3c fa 8a 2f 3e 3b 71 17 bc
       -0.42557046 0.024146246 0.17142859 -0.009243305
000060 7e 84 9d be 71 61 b1 be 60 c2 d2 3d 1b 37 81 be
       -0.30765146 -0.34644654 0.1029098 -0.25237355
000070 14 86 31 3d 76 9b df 3d 15 ac 09 bd dd f5 a1 3d
       0.043340757 0.10918324 -0.033611376 0.07908223
000080 b8 e8 8a 3e cb a7 85 bc 28 c5 1e 3e 2e bc 0c 3e
       0.27130675 -0.016315361 0.15504897 0.1374366
000090 f9 17 42 3d 9b 59 00 bf 74 84 46 be 06 f6 17 be
       0.047386143 -0.5013673 -0.19386464 -0.14839944
0000a0 02 90 50 3d 22 de ad 3d 61 c1 9c 3c 6a 49 d0 3c
       0.050918587 0.08489634 0.019135179 0.025425632
0000b0 59 4d e7 3d 68 69 07 3e 95 eb cb bc ba e4 35 bc
       0.1129405 0.13223803 -0.024892608 -0.011101896
0000c0 54 a8 c2 3d 70 a4 e4 be 9d f3 30 3e f0 96 90 3e
       0.09504762 -0.44656706 0.17280431 0.28240156
0000d0 16 d4 d1 bc f9 63 d5 bb 39 42 0c be 71 a6 1d 3e
       -0.025613826 -0.006512162 -0.13697137 0.15395524
0000e0 de 2b 09 bc 87 65 02 3e 74 e3 d5 3d e0 2b a4 bc
       -0.008372275 0.12734042 0.10443774 -0.020040452
0000f0 cd ae 13 3e 6a 39 b9 3e 40 28 5e be 08 4b 68 3d
       0.1442215 0.36176616 -0.21695042 0.05671218
000100 41 c1 92 3e 54 b6 19 3d 12 9b 3e be d0 78 2e 3e
       0.28663066 0.037527397 -0.18613842 0.17038274
000110 62 69 1f 3e 0c 2e e0 be 89 83 ee 3d 71 be 15 3b
       0.15567544 -0.4378513 0.11646182 0.0022849108
000120 40 4d 0f 3e 61 65 27 3d 93 7c c5 bd 98 fd 84 bd
       0.13994312 0.040868167 -0.09642901 -0.06493682
000130 7c 90 3c be 9a 52 21 be e3 d6 09 3e 2e b7 ad bc
       -0.18414491 -0.15754166 0.13460879 -0.021205511
000140 89 92 2c 3e 9b 37 1b 3e 41 db e0 3d 06 64 ab 3d
       0.16852774 0.1515793 0.10979319 0.08368687
000150 77 03 c1 bd f1 4c 49 3d 51 5e a1 be 46 54 83 3d
       -0.09424489 0.049145643 -0.3151727 0.06412558
000160 55 7a 47 3e be 42 27 3e ee 3b 2b 3e f9 c9 5f 3a
       0.1948026 0.16334054 0.1672208 0.0008536871
000170 57 f5 ad 3d da a3 65 3e 06 05 11 bf 62 4c 57 3d
       0.084940605 0.22425786 -0.5664829 0.05256308
000180 4b 5f e9 3d 24 88 03 3e 11 d2 13 3e a4 d0 c8 be
       0.11395129 0.12844902 0.14435603 -0.3922168
000190 f5 c2 b9 3d b9 79 1a bb c1 6a c9 3d 51 f1 f7 bc
       0.09070388 -0.0023571088 0.09834815 -0.030266436
0001a0 3f fd ed bb eb 11 8e be ed 38 3a 3d 4e 8d 80 be
       -0.0072628553 -0.27748045 0.045464445 -0.25107807
0001b0 1b 57 41 bc 11 da 05 be b9 b3 cc bb f7 7e 4f bd
       -0.011800553 -0.13071467 -0.0062470105 -0.050658192
0001c0 c2 ae 97 3e b4 e3 a6 bc c2 bf 8d 3e 6c de a9 bd
       0.29625517 -0.02037225 0.27685362 -0.08294377
0001d0 4f 96 fb 3d 7a 17 b0 be 11 16 aa 3c 56 cf b1 bc
       0.122845285 -0.3439291 0.020762475 -0.02170531
0001e0 2b 70 91 3c 81 9a c6 3d 9e e8 22 3e 50 18 1d 3e
       0.017753681 0.09697438 0.15909049 0.15341306
0001f0 93 56 b7 bd a8 a7 1d 3e 9e a8 0a 3e bf ef 01 bc
       -0.089520596 0.15395987 0.13540885 -0.007930695
000200 1f 41 a2 3d 5b 74 f0 bc 89 9e 38 bd 83 ee 92 3d
       0.07922577 -0.029352358 -0.045073066 0.07174399
000210 54 c3 04 bd c0 b8 73 3c cf c4 8c bd 1d fa e8 bc
       -0.032412842 0.014875591 -0.06873476 -0.028439576
000220 a0 3b e0 3c dc f3 55 bd b7 ca bc bd 30 41 a2 bd
       0.027372181 -0.052234516 -0.09218352 -0.0792259
000230 01 5f 6c 3d 40 9b 33 bc ca bf a6 3d f2 e3 01 bd
       0.05770779 -0.010962307 0.081420496 -0.031711526
000240 59 18 41 3d 31 8e 69 3d 3f d6 98 bc af 80 8d 3d
       0.04714236 0.05702037 -0.018656848 0.0690931
000250 90 52 c7 3b e3 6e 28 bd df 3b a3 bc 09 8d b5 bd
       0.0060828403 -0.041121375 -0.01992601 -0.08864791
000260 96 95 68 bd f9 b7 a0 bd 1f 41 a1 bd c3 d6 0b bd
       -0.05678328 -0.0784759 -0.07873749 -0.03414036
000270 9e 6c ab 3d 08 23 3b bd 47 1d 5f bd 58 06 c7 3c
       0.083703265 -0.045687705 -0.05447128 0.024295017
000280 ac 58 98 3d 0b 63 f6 3c 0d 86 b3 3c fe b5 95 3d
       0.07438788 0.030076524 0.021914506 0.07310103
000290 e3 5d d0 ba 80 68 f3 bc 27 98 80 bd da d1 0e 3d
       -0.0015897121 -0.029712915 -0.06279021 0.0348681
0002a0 8c 6d 32 3d 65 50 b0 3c 51 c3 58 bd ec 96 8b bd
       0.043561503 0.02152271 -0.052920643 -0.068158954
0002b0 e0 aa 40 bd 00 3b 8d bd 18 5d 9a bd 95 96 84 3b
       -0.04703796 -0.06896019 -0.075372875 0.004046271
0002c0 f3 d3 90 3d 93 ad 00 3b 6b 50 20 3d 26 4e 80 39
       0.07071676 0.0019634708 0.039139193 0.00024472288
0002d0 c6 84 ee bc 00 a5 8b bd b5 92 04 bd 8c 75 0c bd
       -0.029116046 -0.068185806 -0.032366473 -0.03429179
0002e0 7f 3e be 3c 0c f0 76 bd 0f 27 f6 bc fb b8 00 3c
       0.02322316 -0.06028752 -0.030047921 0.007856603
0002f0 d4 cf cf bc ab 99 96 3d 21 cb 07 3d fc 48 1d bd
       -0.025367655 0.073535286 0.033152703 -0.03839968
000300 d8 e5 5d 3d d5 16 84 bd e8 c6 a9 bd 91 22 59 3d
       0.054174274 -0.06449667 -0.082898915 0.05301148
000310 02 a9 5d 3d e4 82 ad 3d ff 15 41 3c f7 5a 60 3d
       0.054116257 0.08472231 0.011785029 0.05477425
000320 f4 2a 21 bd 97 c1 b2 bd fc f5 cb bc 2d c2 87 bd
       -0.039347604 -0.087283306 -0.024897568 -0.06628833
000330 3f 1d 65 bd ed c5 9d 3c d0 2e 3b bc aa 42 82 3d
       -0.055936094 0.019259417 -0.011424735 0.063603714
000340 d4 91 b1 3c ce c5 09 3d 5b a2 25 3d 19 31 2c bc
       0.021675982 0.033635907 0.040438037 -0.010509753
000350 51 b3 8e bd 13 7f fc bb 96 a0 6b bc 86 80 9a bd
       -0.06967796 -0.007705578 -0.014381548 -0.07544045
000360 11 31 01 bd 25 43 06 bc 27 a1 1e 3d c8 b2 75 bc
       -0.031540934 -0.008194719 0.038727906 -0.014996238
000370 9d 78 59 3c 9f bc 93 bd c0 6f 23 bd e3 6b 77 bd
       0.013273385 -0.07213711 -0.039901495 -0.060405623
000380 45 82 8c 3d 3a 99 21 3b 66 32 37 bd d6 78 37 bd
       0.068607844 0.002465798 -0.044725798 -0.044792973
000390 ba 14 24 bd 26 1a 33 3d 46 6b a7 3d bf 22 94 bd
       -0.04005883 0.04372611 0.08174758 -0.0723319
0003a0 b8 3c 70 bd a9 f6 af bd fa 33 57 3b cd 03 25 bd
       -0.058651656 -0.085919686 0.0032837377 -0.040286828
0003b0 0b c2 ed 3c 36 57 6c bd 21 40 54 bb 07 d5 98 3d
       0.029023191 -0.05770036 -0.0032386857 0.07462507
0003c0 eb 76 b2 bd 89 ab 3e bd 9b cd 37 3d 5e e6 85 bd
       -0.08714088 -0.046550307 0.044873815 -0.0653808
0003d0 30 9e e0 3c a3 3c 04 bd 68 12 38 bd 44 9b 2e 3d
       0.02741918 -0.03228439 -0.04493943 0.04262854
0003e0 30 b0 4b 3d 8b 42 03 3c a9 02 8a bd a3 d1 b5 bc
       0.049728572 0.008011471 -0.06738789 -0.02219469
0003f0 ab f2 7d bd 9c 15 3c 3c b4 a3 97 bd 64 54 85 3d
       -0.061999004 0.011479761 -0.07404271 0.06510237

shared.2.bias f4 [64]
000000 ab 52 17 ba de db 00 bd 9f 5f 0f 3d 38 3d c0 3b
       -0.00057725114 -0.03145968 0.0350033 0.005866673
000010 13 f5 95 bd a0 0d 47 3d 35 d6 31 bd 77 96 cd 3c
       -0.07322135 0.04859698 -0.043417174 0.025096161
000020 33 ed 94 3d f0 a6 54 3d d0 55 ff 3d 8e e6 b7 3d
       0.07271805 0.051917017 0.12467539 0.08979522
000030 b9 f5 97 bc 43 cd 84 bd 17 76 af 3d 69 0b 1a be
       -0.018549787 -0.06484463 0.08567446 -0.15043415
000040 17 5c da bc 7f d7 f4 3b 65 f4 0e 3e d1 5c 1d bd
       -0.02665524 0.007471978 0.13960417 -0.038418595
000050 a0 8d db bd b1 6c a4 3d b6 f9 18 be 27 9b ad 3d
       -0.10720372 0.08028544 -0.14939007 0.084768586
000060 f4 b9 68 bd 8f 99 e0 bc b5 90 1a 3d 9b bb 1f bc
       -0.056817964 -0.027416972 0.03773566 -0.0097493185
000070 dc b1 3a bd f5 2d 88 bd fd 85 7a 3d b1 45 e8 3c
       -0.045579776 -0.066493906 0.061162937 0.028353544
000080 a0 a4 8b 3d 39 be 8e 3d bc 63 b0 3c be 17 c0 bd
       0.06818509 0.06969876 0.021531932 -0.093795285
000090 1d 14 fd 3b f1 ac ab bd 81 04 04 3d be 83 86 bd
       0.007723345 -0.08382595 0.032230858 -0.065680966
0000a0 6b b0 ef 3c 65 12 6c 3d 54 65 77 3d 4a c3 8f 3d
       0.029258927 0.05763473 0.06039937 0.0701967
0000b0 9c c5 b4 3d 72 01 1f bc 3c dd 8c bc 61 5d 23 3e
       0.088267535 -0.009704934 -0.017195337 0.1595359
0000c0 92 7a 3b 3d e3 b2 79 3e 4d 4a a0 3d 63 32 6a bc
       0.04577119 0.24384646 0.07826672 -0.01429424
0000d0 1d 9b 74 3d ff 94 0c bd ad 10 df 3d 96 0d ab bd
       0.05971824 -0.03432178 0.108918525 -0.08352201
0000e0 c8 f4 d7 bc b9 59 85 3c 0f c3 b7 bd 5c 94 ff bd
       -0.026361838 0.016278135 -0.08972751 -0.12479469
0000f0 72 e0 dd 3d cf e3 ca 3d 3d b7 ba bd f2 6e 21 3e
       0.10833825 0.09906732 -0.09116981 0.15764979

dir_head.weight f4 [1, 64]
000000 8c f3 d4 3d fc 1f b7 bd e3 b0 8b bd 3b d4 0b be
       0.103980154 -0.089416474 -0.06820848 -0.13655178
000010 49 dc 88 bd b3 5c 46 bd 6f 73 a0 bd 39 93 85 3e
       -0.06682641 -0.04842825 -0.07834517 0.26088884
000020 50 b7 64 3e 05 f8 d6 bd 62 0e 6c 3e 53 b1 13 3e
       0.22335553 -0.10496525 0.23052362 0.14423113
000030 ea f0 65 3e 9c 87 60 bb 0a 31 30 bc 7e 99 0b be
       0.22455183 -0.0034260517 -0.010753879 -0.13632771
000040 e6 c9 c0 bd e7 d0 28 3e fb cd c3 3d ff 22 76 3e
       -0.09413509 0.1648594 0.09560772 0.24036787
000050 c4 a8 8f bd 0f 43 89 3e 80 cd a9 bd fb 6f 86 3e
       -0.07014611 0.26808974 -0.08291149 0.2625731
000060 c6 d9 c4 bd 0d 82 cd bd 07 b4 4c 3e dc 07 33 3e
       -0.096118495 -0.10034571 0.1999055 0.17483467
000070 82 dd 8f 3d 4a 34 e2 bd 0c 3f fc 3d e7 d4 15 3e
       0.07024671 -0.110451296 0.12316713 0.14631997
000080 6f c9 9b bd d9 fd 09 3e 14 a0 b8 bd ad 32 2b bc
       -0.0760678 0.13475741 -0.090149075 -0.010449094
000090 f1 49 80 3b dc f8 78 bd d9 9c 0d 3e 65 7b da bd
       0.0039150645 -0.060784206 0.13829364 -0.10668067
0000a0 4c c4 58 bd 1e 51 32 bd 36 27 33 3e 3c 90 4f 3e
       -0.05292158 -0.04353439 0.17495427 0.20269865
0000b0 98 94 5b 3e 83 32 80 bb 6a 08 31 3e 1e 45 a9 3c
       0.21443403 -0.0039122715 0.17288366 0.02066284
0000c0 68 96 22 bd 8f 00 86 3e 35 0c 7e 3e 89 23 a9 bd
       -0.03969422 0.261723 0.24809344 -0.08258731
0000d0 40 be 2a 3e 61 8f 6b 3e 2d 13 4d 3d a1 f2 ca bc
       0.16674137 0.23003913 0.050067116 -0.024773898
0000e0 ba 36 cc 3d 97 cb 13 3e 3b 86 b5 bd 7b f6 13 be
       0.09971376 0.14433132 -0.08863493 -0.14449494
0000f0 fe 5c bc 3d c5 1c a0 3d de 96 ad bb 40 0c 10 3e
       0.09197424 0.07817987 -0.005297526 0.14067173

mag_head.weight f4 [2, 64]
000000 95 a9 9d be 8d 00 cc 3d 09 f4 35 3f 35 f0 a5 3f
       -0.30793443 0.099610426 0.71075493 1.296393
000010 bc 19 fb be 31 d5 39 3d 5f 25 19 3d 8b 56 32 be
       -0.4904307 0.04536933 0.037389155 -0.17415826
000020 4a f5 88 3e b6 7e 4e 3d a3 11 68 be af 40 03 3f
       0.2674964 0.05041381 -0.22662978 0.51270574
000030 88 d2 3c 3e 33 44 b8 bd 16 f6 c4 3f 0a 4a 0d bf
       0.18439686 -0.08997383 1.53876 -0.551911
000040 a5 25 5d 3d b5 34 39 3f 3b 66 e1 be 22 0d 70 3f
       0.05399098 0.7234605 -0.44023308 0.9377004
000050 94 53 0b 3d fe eb a9 be 9a 17 95 be e9 c0 af 3d
       0.034015253 -0.3318786 -0.2911957 0.085817166
000060 58 b6 cc bd 8a 06 0b 3e 53 45 a3 3f 21 f3 8d 3f
       -0.09995717 0.13576713 1.2755531 1.1089822
000070 9d fe 81 3d 5e 00 58 3e 82 8e 99 3f 45 a2 d7 3e
       0.06347392 0.2109389 1.1996615 0.4211599
000080 90 ab 77 3d 3a af 64 3f 2f 02 c8 bd c1 83 c7 bb
       0.06046635 0.89329875 -0.097660415 -0.0060887043
000090 18 98 cd 3f 66 78 d8 bd f9 58 1b 3f 34 4f 58 bd
       1.606204 -0.10569839 0.60682636 -0.05280991
0000a0 cc 00 67 3d 3a 57 10 bd 17 c3 36 3f 66 0a 3f 3f
       0.056397244 -0.035239436 0.71391433 0.7462524
0000b0 c3 c8 36 3f fd 13 5a 3c 9a 2e cb 3e c7 3a f2 be
       0.7140009 0.01331043 0.39683992 -0.4731047
0000c0 b9 d3 7d 3e f9 a6 67 be b8 9f 14 3f 44 e6 96 bc
       0.24787797 -0.22622289 0.5805621 -0.018420346
0000d0 50 a3 a0 3e 73 51 af 3e de cc a6 be df 5f 4d bd
       0.31374598 0.34241828 -0.32578176 -0.050140258
0000e0 af b3 14 3f 09 09 a3 3f 73 1f 84 bc 66 76 09 bf
       0.58086675 1.2737132 -0.016128277 -0.53696287
0000f0 12 cd 86 3f 85 ee aa 3f 42 3b e5 3c 78 3b a5 be
       1.0531332 1.335404 0.027982358 -0.32271934
000100 fe d4 33 3e 18 ae d8 3d 72 ab ac bd 1b e8 b8 be
       0.17561719 0.10580081 -0.08431138 -0.36114582
000110 aa aa f8 3e ee 01 ad 3d c5 eb 89 3d 34 1b 5e be
       0.48567706 0.08447634 0.067344226 -0.21690065
000120 d3 c9 9c bd 41 44 68 bd 2d 7f ce 3d 58 aa f4 bd
       -0.076556824 -0.056705717 0.100828506 -0.11946553
000130 4d ab 3f bd 5c d7 35 bd d3 72 4c be 67 2b e4 3e
       -0.046794225 -0.044394836 -0.19965677 0.44564363
000140 84 23 64 bd c5 d5 49 3d 08 0e 41 3e c5 e9 bb 3d
       -0.055697933 0.049276132 0.18853009 0.091754474
000150 09 87 95 bd 64 94 83 3c b1 97 84 bd 72 c1 14 be
       -0.073011465 0.01606197 -0.06474245 -0.14526919
000160 ea 43 a6 bd 6d 60 dd 3d 4c c3 e3 bd 84 81 e8 3d
       -0.08118422 0.108094074 -0.11121234 0.11352828
000170 18 0a d0 3b d2 44 ea bd 7c ce 95 3d 2c a7 15 be
       0.0063488595 -0.11438908 0.073147744 -0.14614552
000180 55 cd fc 3c 2b bf 1d 3e cf 32 48 3d 28 f7 be 3d
       0.030859629 0.15404956 0.04887658 0.09324485
000190 3b 9d bb be e7 df 8f bd a2 db a3 bc e2 91 ff bd
       -0.36643395 -0.07025128 -0.02000219 -0.12478997
0001a0 a7 aa 76 3c cc b6 0c 3d 81 2a 0e 3e 7a e7 be 3d
       0.015055335 0.034354016 0.13883401 0.093214944
0001b0 46 a2 19 bd e3 87 96 bd 6f 9e af bd 83 73 63 3e
       -0.03750827 -0.07350137 -0.08575141 0.22212033
0001c0 e3 a9 e7 be fe 32 e6 bd a8 d3 19 be 4a 79 01 3d
       -0.452468 -0.11240195 -0.15022147 0.03160981
0001d0 f1 ba 20 be 9d 23 cd bd 7f 41 33 3e 0e 11 05 3c
       -0.15696312 -0.10016558 0.17505454 0.008121742
0001e0 2b b6 6b bd 28 d0 bf bc 33 e8 1f bd 01 27 02 3f
       -0.057546776 -0.023414686 -0.0390398 0.50840765
0001f0 59 68 45 3d 07 18 da bd 5a 10 cc 3c 91 55 35 3e
       0.048195217 -0.10649114 0.02491014 0.17708422

mag_head.bias f4 [2]
000000 99 c9 d1 bc 0f c9 67 3d
       -0.025608825 0.05658823
